tflite_model.tflite (tflite, 3952 bytes, 2 tensors)

model_1/quant_conv2d/Conv2D;model_1/quant_conv2d/LastValueQuant/FakeQuantWithMinMaxVarsPerChannel i1 [8, 8, 8, 1]
000000 7f fd 00 b6 34 01 d7 ab 34 02 13 e7 09 05 cd af
       127 -3 0 -74 52 1 -41 -85 52 2 19 -25 9 5 -51 -81
000010 16 14 f6 0c d6 f5 e5 16 24 02 19 e6 00 08 ef dc
       22 20 -10 12 -42 -11 -27 22 36 2 25 -26 0 8 -17 -36
000020 17 ff 07 ea f8 28 fc d9 27 04 0f f4 ec 06 fc d1
       23 -1 7 -22 -8 40 -4 -39 39 4 15 -12 -20 6 -4 -47
000030 2e 04 0c c4 3a 03 0a c3 6a 0a 12 d6 e3 0f d6 c3
       46 4 12 -60 58 3 10 -61 106 10 18 -42 -29 15 -42 -61
000040 0c 85 2e 3f da 08 07 e9 01 8b 3a 38 eb fd 16 f7
       12 -123 46 63 -38 8 7 -23 1 -117 58 56 -21 -3 22 -9
000050 ff 85 49 0e dc 0a 06 ef 11 9e 09 14 f6 14 10 07
       -1 -123 73 14 -36 10 6 -17 17 -98 9 20 -10 20 16 7
000060 1d 8b 06 fd e3 19 09 19 0e 81 47 0c e6 e3 f0 0f
       29 -117 6 -3 -29 25 9 25 14 -127 71 12 -26 -29 -16 15
000070 03 8b 4a 22 d6 14 10 f2 f9 8a 29 4b d6 01 0b 05
       3 -117 74 34 -42 20 16 -14 -7 -118 41 75 -42 1 11 5
000080 c9 e8 21 22 2e 41 0f 3b 99 d8 e8 1e 11 fe 1c ef
       -55 -24 33 34 46 65 15 59 -103 -40 -24 30 17 -2 28 -17
000090 81 b3 ab b6 b4 cc cc c4 fb 3a 39 44 1d fc 1d ff
       -127 -77 -85 -74 -76 -52 -52 -60 -5 58 57 68 29 -4 29 -1
0000a0 f8 0c 3a 2e 19 f5 fb 0f 98 d7 d6 b9 d7 de df eb
       -8 12 58 46 25 -11 -5 15 -104 -41 -42 -71 -41 -34 -33 -21
0000b0 b3 d8 fd f7 f7 25 15 1e 9d 9a 01 eb 36 14 0a 12
       -77 -40 -3 -9 -9 37 21 30 -99 -102 1 -21 54 20 10 18
0000c0 b1 81 aa a9 9a bb d3 ca d9 b2 b7 ed 00 f4 06 0d
       -79 -127 -86 -87 -102 -69 -45 -54 -39 -78 -73 -19 0 -12 6 13
0000d0 2a 5e 3a 13 45 43 fb 02 52 56 38 63 1f 38 4b 19
       42 94 58 19 69 67 -5 2 82 86 56 99 31 56 75 25
0000e0 2f 55 4f 4b 53 0e f7 43 04 0d 2c fe f9 02 19 1a
       47 85 79 75 83 14 -9 67 4 13 44 -2 -7 2 25 26
0000f0 d1 bd cc ae c4 d1 e3 f5 b9 82 a1 b9 ae ab aa de
       -47 -67 -52 -82 -60 -47 -29 -11 -71 -126 -95 -71 -82 -85 -86 -34

model_1/quant_dense_1/MatMul;model_1/quant_dense_1/LastValueQuant/FakeQuantWithMinMaxVars i1 [1, 288] scale=0.017412405 zero_point=0
000000 f6 22 03 14 f2 2d e9 13 0f 3d ff 0f 3c 40 0e 36
       -0.17412406 0.59202176 0.052237216 0.34824812 -0.24377367 0.78355825 -0.40048534 0.3308357 0.2611861 1.0621567 -0.017412405 0.2611861 1.0447444 1.114394 0.24377367 0.9402699
000010 59 36 f8 40 fa 1e f7 e3 33 10 f7 1a d6 fa f1 dc
       1.5497041 0.9402699 -0.13929924 1.114394 -0.10447443 0.5223722 -0.15671165 -0.50495976 0.8880327 0.2785985 -0.15671165 0.45272255 -0.73132104 -0.10447443 -0.2611861 -0.6268466
000020 03 03 f5 cc d7 04 f0 dc ff 07 f1 df df f9 f9 d7
       0.052237216 0.052237216 -0.19153646 -0.9054451 -0.7139086 0.06964962 -0.2785985 -0.6268466 -0.017412405 0.121886835 -0.2611861 -0.5746094 -0.5746094 -0.121886835 -0.121886835 -0.7139086
000030 ed 3a fa db f3 e6 fb f8 ff 38 0a 46 32 1c 13 22
       -0.3308357 1.0099195 -0.10447443 -0.644259 -0.22636127 -0.45272255 -0.08706203 -0.13929924 -0.017412405 0.9750947 0.17412406 1.2188684 0.87062025 0.48754734 0.3308357 0.59202176
000040 33 26 eb 19 f5 0e ff e7 00 03 e9 f5 d3 0c e5 ed
       0.8880327 0.6616714 -0.36566052 0.43531013 -0.19153646 0.24377367 -0.017412405 -0.43531013 0.0 0.052237216 -0.40048534 -0.19153646 -0.78355825 0.20894887 -0.47013494 -0.3308357
000050 07 fb ea ce ce 00 ed d1 00 fb e6 cf e7 fc f5 ec
       0.121886835 -0.08706203 -0.3830729 -0.87062025 -0.87062025 0.0 -0.3308357 -0.81838304 0.0 -0.08706203 -0.45272255 -0.8532079 -0.43531013 -0.06964962 -0.19153646 -0.34824812
000060 f1 10 1c 39 fd 08 ec 15 18 4c 04 43 2b 2e 13 33
       -0.2611861 0.2785985 0.48754734 0.9925071 -0.052237216 0.13929924 -0.34824812 0.36566052 0.41789773 1.3233428 0.06964962 1.1666312 0.74873346 0.8009707 0.3308357 0.8880327
000070 4b 24 f8 3d 0c 29 f7 e9 42 08 eb f8 d2 00 ef d5
       1.3059304 0.6268466 -0.13929924 1.0621567 0.20894887 0.7139086 -0.15671165 -0.40048534 1.1492188 0.13929924 -0.36566052 -0.13929924 -0.8009707 0.0 -0.29601088 -0.74873346
000080 05 06 fc d9 d2 02 f2 e8 07 05 f0 cc e9 01 ef d5
       0.08706203 0.10447443 -0.06964962 -0.6790838 -0.8009707 0.03482481 -0.24377367 -0.41789773 0.121886835 0.08706203 -0.2785985 -0.9054451 -0.40048534 0.017412405 -0.29601088 -0.74873346
000090 f2 2d ff ef 03 ec fe 10 cb 4c 06 4d 19 39 19 35
       -0.24377367 0.78355825 -0.017412405 -0.29601088 0.052237216 -0.34824812 -0.03482481 0.2785985 -0.92285746 1.3233428 0.10447443 1.3407552 0.43531013 0.9925071 0.43531013 0.92285746
0000a0 29 48 fc 52 0c 3d f4 f2 3f 36 f0 23 d9 f8 ef db
       0.7139086 1.2536932 -0.06964962 1.4278172 0.20894887 1.0621567 -0.20894887 -0.24377367 1.0969815 0.9402699 -0.2785985 0.6094342 -0.6790838 -0.13929924 -0.29601088 -0.644259
0000b0 01 06 ec d0 d1 00 fa dd f8 ff e4 b5 cf 04 f4 e6
       0.017412405 0.10447443 -0.34824812 -0.83579546 -0.81838304 0.0 -0.10447443 -0.6094342 -0.13929924 -0.017412405 -0.48754734 -1.3059304 -0.8532079 0.06964962 -0.20894887 -0.45272255
0000c0 d6 0f 14 0e 01 fd e1 10 fa 28 05 2f 26 2c 0e 33
       -0.73132104 0.2611861 0.34824812 0.24377367 0.017412405 -0.052237216 -0.53978455 0.2785985 -0.10447443 0.69649625 0.08706203 0.81838304 0.6616714 0.7661458 0.24377367 0.8880327
0000d0 3f 57 e5 38 23 1f f6 fd 38 52 f4 f6 de 1e f8 e9
       1.0969815 1.5148792 -0.47013494 0.9750947 0.6094342 0.53978455 -0.17412406 -0.052237216 0.9750947 1.4278172 -0.20894887 -0.17412406 -0.59202176 0.5223722 -0.13929924 -0.40048534
0000e0 05 03 f3 d2 c9 08 ec e2 06 02 f2 dd e4 fc f4 c9
       0.08706203 0.052237216 -0.22636127 -0.8009707 -0.9576823 0.13929924 -0.34824812 -0.5223722 0.10447443 0.03482481 -0.24377367 -0.6094342 -0.48754734 -0.06964962 -0.20894887 -0.9576823
0000f0 ec 44 01 ce 23 2a 06 2c 1c 7f 0b 47 47 56 33 4c
       -0.34824812 1.1840435 0.017412405 -0.87062025 0.6094342 0.73132104 0.10447443 0.7661458 0.48754734 2.2113755 0.19153646 1.2362808 1.2362808 1.4974669 0.8880327 1.3233428
