tflite_meow_model.tflite (tflite, 3952 bytes, 2 tensors)

model_1/quant_conv2d/Conv2D;model_1/quant_conv2d/LastValueQuant/FakeQuantWithMinMaxVarsPerChannel i1 [8, 8, 8, 1]
000000 7f fc f9 c0 2c ff d7 b1 41 fc 12 ed 08 07 dc bc
       127 -4 -7 -64 44 -1 -41 -79 65 -4 18 -19 8 7 -36 -68
000010 16 13 f2 14 ce f3 f2 28 26 ff 11 f5 03 06 fb e7
       22 19 -14 20 -50 -13 -14 40 38 -1 17 -11 3 6 -5 -25
000020 23 04 fc fc fa 30 06 e6 2c 00 01 08 ec 01 0a dd
       35 4 -4 -4 -6 48 6 -26 44 0 1 8 -20 1 10 -35
000030 31 06 04 d1 3b 00 0f d1 63 04 0a e1 e7 0a e2 d1
       49 6 4 -47 59 0 15 -47 99 4 10 -31 -25 10 -30 -47
000040 11 85 2c 3c da 02 00 e9 06 89 30 34 eb f9 0f f3
       17 -123 44 60 -38 2 0 -23 6 -119 48 52 -21 -7 15 -13
000050 00 85 3f 07 d6 07 01 f0 12 9d 02 11 ef 0d 0a 04
       0 -123 63 7 -42 7 1 -16 18 -99 2 17 -17 13 10 4
000060 21 87 fe f9 e2 12 03 13 12 81 37 07 e5 df ea 07
       33 -121 -2 -7 -30 18 3 19 18 -127 55 7 -27 -33 -22 7
000070 07 8a 45 1a d4 0e 07 ec fd 89 21 42 d8 ff 05 00
       7 -118 69 26 -44 14 7 -20 -3 -119 33 66 -40 -1 5 0
000080 cd eb 22 22 2a 3b 0d 3c 9b d9 e9 1e 0e fc 1a f1
       -51 -21 34 34 42 59 13 60 -101 -39 -23 30 14 -4 26 -15
000090 81 b6 ab b4 b0 c8 cc c8 fb 44 3b 41 1c fc 1d ff
       -127 -74 -85 -76 -80 -56 -52 -56 -5 68 59 65 28 -4 29 -1
0000a0 fb 13 3f 2b 1b f3 f7 10 9c db d8 b7 d2 d9 dc ea
       -5 19 63 43 27 -13 -9 16 -100 -37 -40 -73 -46 -39 -36 -22
0000b0 b4 da ff f6 f3 1e 12 1d 9f 99 03 ec 30 0d 06 10
       -76 -38 -1 -10 -13 30 18 29 -97 -103 3 -20 48 13 6 16
0000c0 ad 81 a9 b5 a2 bf d8 cf d4 b4 b8 f0 02 f5 06 10
       -83 -127 -87 -75 -94 -65 -40 -49 -44 -76 -72 -16 2 -11 6 16
0000d0 1f 49 33 19 41 43 03 03 41 4b 38 61 23 39 47 1c
       31 73 51 25 65 67 3 3 65 75 56 97 35 57 71 28
0000e0 23 3f 4f 4c 5a 0d f8 3e f7 03 2b 05 fc 08 1a 1c
       35 63 79 76 90 13 -8 62 -9 3 43 5 -4 8 26 28
0000f0 c7 bd d2 b4 c8 d4 e4 f6 af 87 aa bd b4 ac b2 e1
       -57 -67 -46 -76 -56 -44 -28 -10 -81 -121 -86 -67 -76 -84 -78 -31

model_1/quant_dense_1/MatMul;model_1/quant_dense_1/LastValueQuant/FakeQuantWithMinMaxVars i1 [1, 288] scale=0.0015464379 zero_point=0
000000 0d 1b 00 4b 0d d2 1b ee b3 4f 4b ce 4b 15 04 46
       0.020103693 0.04175382 0.0 0.11598284 0.020103693 -0.07113614 0.04175382 -0.027835881 -0.119075716 0.12216859 0.11598284 -0.077321894 0.11598284 0.032475196 0.0061857514 0.10825065
000010 1b f5 f6 d7 a8 a9 04 d8 c2 29 b8 10 21 8f ba b7
       0.04175382 -0.017010815 -0.0154643785 -0.06340395 -0.13608652 -0.1345401 0.0061857514 -0.061857514 -0.095879145 0.06340395 -0.111343525 0.024743006 0.05103245 -0.17474748 -0.10825065 -0.11288996
000020 01 0f 33 b2 06 0b c1 1b de 42 1f 46 a9 94 ba 44
       0.0015464379 0.023196567 0.07886833 -0.12062215 0.009278627 0.017010815 -0.09742559 0.04175382 -0.05257889 0.1020649 0.047939572 0.10825065 -0.1345401 -0.16701528 -0.10825065 0.10515778
000030 0a d8 0b b9 37 4b e1 f9 f1 3c 07 20 21 db d4 b5
       0.0154643785 -0.061857514 0.017010815 -0.10979709 0.085054085 0.11598284 -0.047939572 -0.010825065 -0.023196567 0.09278627 0.010825065 0.04948601 0.05103245 -0.0572182 -0.06804326 -0.11598284
000040 a3 b3 ca ec 17 d8 09 fa 95 ba cb 99 d0 c3 ac 27
       -0.14381872 -0.119075716 -0.08350764 -0.030928757 0.03556807 -0.061857514 0.013917941 -0.009278627 -0.16546886 -0.10825065 -0.08196121 -0.1592831 -0.07422902 -0.09433271 -0.12990078 0.060311075
000050 2b b5 e8 f9 38 dd 3a 29 e3 b5 cd f3 e3 bb 1d 01
       0.06649683 -0.11598284 -0.03711451 -0.010825065 0.08660052 -0.054125324 0.0896934 0.06340395 -0.0448467 -0.11598284 -0.07886833 -0.020103693 -0.0448467 -0.10670421 0.0448467 0.0015464379
000060 85 51 14 3d 29 1a 54 53 ec f2 2c 4a 60 fd cc 40
       -0.19021186 0.12526147 0.030928757 0.09433271 0.06340395 0.040207386 0.12990078 0.12835434 -0.030928757 -0.02165013 0.06804326 0.1144364 0.14845803 -0.0046393136 -0.08041477 0.09897202
000070 4d aa 0e 45 f1 fb c0 19 20 18 1f 1a 87 c2 cd c8
       0.119075716 -0.13299365 0.02165013 0.10670421 -0.023196567 -0.0077321893 -0.09897202 0.038660947 0.04948601 0.03711451 0.047939572 0.040207386 -0.18711898 -0.095879145 -0.07886833 -0.08660052
000080 17 32 12 8d 97 fe db b2 30 24 35 ea b3 f4 f6 1f
       0.03556807 0.077321894 0.027835881 -0.17784035 -0.16237597 -0.0030928757 -0.0572182 -0.12062215 0.07422902 0.055671763 0.08196121 -0.03402163 -0.119075716 -0.018557254 -0.0154643785 0.047939572
000090 1a e4 ce 5f e6 d9 08 3e d4 58 db 2f dd 1f 0b 3f
       0.040207386 -0.04330026 -0.077321894 0.14691159 -0.040207386 -0.060311075 0.012371503 0.095879145 -0.06804326 0.13608652 -0.0572182 0.07268258 -0.054125324 0.047939572 0.017010815 0.09742559
0000a0 f8 0c f4 fe 31 17 4f 11 d4 ac fe 93 98 89 d2 e1
       -0.012371503 0.018557254 -0.018557254 -0.0030928757 0.07577545 0.03556807 0.12216859 0.026289444 -0.06804326 -0.12990078 -0.0030928757 -0.16856173 -0.16082954 -0.1840261 -0.07113614 -0.047939572
0000b0 ed 2d 9b 9a e8 e0 11 bb 95 e9 d8 bd fc 0d b2 97
       -0.029382318 0.069589704 -0.15619022 -0.15773666 -0.03711451 -0.04948601 0.026289444 -0.10670421 -0.16546886 -0.03556807 -0.061857514 -0.103611335 -0.0061857514 0.020103693 -0.12062215 -0.16237597
0000c0 a1 f2 11 00 d0 07 00 42 0a f0 6f d5 29 03 f8 4c
       -0.14691159 -0.02165013 0.026289444 0.0 -0.07422902 0.010825065 0.0 0.1020649 0.0154643785 -0.024743006 0.1716546 -0.06649683 0.06340395 0.0046393136 -0.012371503 0.11752927
0000d0 10 14 bc be 17 d3 ef cc fa 30 8c de 8a 22 0b ec
       0.024743006 0.030928757 -0.10515778 -0.1020649 0.03556807 -0.069589704 -0.026289444 -0.08041477 -0.009278627 0.07422902 -0.1793868 -0.05257889 -0.18247966 0.05257889 0.017010815 -0.030928757
0000e0 13 0a e3 a0 af 3a 9a 3f 2d 06 04 43 06 b7 4b cc
       0.029382318 0.0154643785 -0.0448467 -0.14845803 -0.12526147 0.0896934 -0.15773666 0.09742559 0.069589704 0.009278627 0.0061857514 0.103611335 0.009278627 -0.11288996 0.11598284 -0.08041477
0000f0 89 2d f5 55 fd cd 03 48 2c 2f 30 e6 f1 1d 7f dd
       -0.1840261 0.069589704 -0.017010815 0.13144721 -0.0046393136 -0.07886833 0.0046393136 0.111343525 0.06804326 0.07268258 0.07422902 -0.040207386 -0.023196567 0.0448467 0.1963976 -0.054125324
